model/multi_layered_model_new.pt (torch, 121187 bytes, 5 tensors)

linear.weight f4 [72, 145]
2.5695346e-07 6.3213963e-07 9.357084e-07 1.1167238e-06 6.3861076e-09 -2.1841863e-08 9.044565e-08 -1.8733488e-08
2.3197711e-07 1.2571468e-09 3.9945914e-07 2.2623621e-07 4.5484552e-07 4.982743e-07 1.6928913e-09 4.23809e-07
1.6582774e-07 5.075276e-07 4.556617e-07 4.505371e-09 0.0 0.0 0.0 0.0
0.0 1.778538e-07 1.8651012e-07 5.040622e-07 4.1668832e-07 3.5497458e-09 4.2466738e-07 -8.312e-08
8.859125e-08 5.370225e-07 1.4974847e-09 -2.8424024e-10 -1.4817251e-08 6.369751e-08 1.772176e-08 1.5197114e-10
2.6300617e-07 1.7455447e-07 5.6371323e-07 3.5646937e-07 3.880882e-09 0.0 0.0 0.0
0.0 0.0 3.920533e-08 1.4889973e-08 1.731787e-07 1.5240371e-07 3.4773338e-09 -1.4731123e-07
1.9032196e-09 -3.3084852e-08 7.7498015e-08 8.3315277e-10 5.11206e-07 3.6695232e-07 2.1577007e-08 5.378794e-07
1.4253912e-09 1.3921024e-07 2.789879e-08 2.6439233e-07 1.5966575e-07 3.0189529e-09 0.0 0.0
0.0 0.0 0.0 1.6424019e-07 1.1030718e-07 2.6226732e-07 3.7779097e-07 4.4471817e-09
-1.748183e-07 2.2503153e-08 -2.2847487e-08 1.4320239e-07 1.577232e-09 -5.2157083e-09 -2.1873582e-08 3.0755706e-07
1.9176663e-07 1.5807354e-09 7.5466323e-07 5.468115e-07 8.467425e-07 3.3410006e-07 8.882473e-09 0.0
0.0 0.0 0.0 0.0 1.3218735e-09 7.443668e-10 9.990426e-10 1.1956311e-09
0.0 3.8956904e-10 2.820994e-10 3.7066877e-11 4.325064e-10 0.0 5.260807e-10 3.7858702e-10
4.1244988e-10 4.3615742e-10 0.0 6.991827e-10 5.556937e-10 5.687171e-10 1.1846749e-09 0.0
0.0 0.0 0.0 0.0 0.0 1.3075119e-05 1.8162712e-06 2.2524614e-06
7.599059e-08 9.902242e-08 2.7990416e-07 0.00014798834 5.0355527e-05 7.8332814e-05 0.0 6.049856e-05
9.3176364e-05 0.00015850471 0.00014392307 0.00016664104 1.0 1.0437 -0.2337 -0.9995
-1.0 -1.7610599e-05 -1.48702275e-05 -2.0345282e-05 -2.48712e-05 -8.581417e-08 -8.640937e-06 -6.344952e-06
-1.1137886e-06 -9.76516e-06 -1.7969006e-08 -1.51337745e-05 -9.197501e-06 -1.3728389e-05 -1.3308128e-05 -2.3706685e-08
-1.3497633e-05 -7.805205e-06 -1.4505588e-05 -1.5645857e-05 -6.019412e-08 0.0 0.0 0.0
0.0 0.0 -9.743798e-06 -8.87591e-06 -1.568303e-05 -1.31292145e-05 -4.7170197e-08 -1.5072775e-05
-5.487624e-06 -2.762572e-06 -1.6133055e-05 -2.1417982e-08 -1.1060885e-06 -1.0236873e-06 -2.1286726e-06 -1.5280033e-06
-2.14858e-09 -8.535583e-06 -9.575871e-06 -1.6248317e-05 -1.27993e-05 -5.173442e-08 0.0 0.0
0.0 0.0 0.0 -8.712982e-06 -4.449166e-06 -9.647862e-06 -7.6751485e-06 -4.6588646e-08
-5.2324503e-06 -5.6953386e-06 -8.16322e-07 -7.799463e-06 -1.2075144e-08 -1.4782368e-05 -1.0864863e-05 -6.6419034e-06
-1.2631184e-05 -2.0166468e-08 -6.272099e-06 -4.5819224e-06 -9.757857e-06 -7.973563e-06 -4.051217e-08 0.0
0.0 0.0 0.0 0.0 -9.979729e-06 -5.946028e-06 -8.491716e-06 -1.2768992e-05
-5.939173e-08 -7.1677528e-06 -7.553435e-06 -8.731334e-07 -1.1505157e-05 -2.2770552e-08 -8.48183e-06 -6.509044e-06
-1.1749075e-05 -1.0709392e-05 -2.2528306e-08 -1.786807e-05 -1.5821148e-05 -1.8396533e-05 -1.8068742e-05 -1.1939287e-07
0.0 0.0 0.0 0.0 0.0 -2.0337614e-08 -1.1266085e-08 -1.5099861e-08
-1.7573994e-08 0.0 -6.8227055e-09 -5.023688e-09 -7.01361e-10 -7.338971e-09 0.0 -8.269707e-09
00000000: 6af3 8934 4eb0 2935 642d 7b35 56e2 9535
00000010: cc6c db31 c49e bbb2 063b c233 60eb a0b2
00000020: 6215 7934 ecc7 ac30 3f75 d634 56eb 7234
00000030: 7e31 f434 26c1 0535 51ab e830 de87 e334
00000040: 620e 3234 083d 0835 aba1 f434 aacd 9a31
00000050: 0000 0000 0000 0000 0000 0000 0000 0000
00000060: 0000 0000 15f8 3e34 8343 4834 e44e 0735
00000070: 35b5 df34 caef 7331 d7fd e334 b47f b2b3
00000080: 8e3f be33 e827 1035 0fd0 cd30 4243 9caf
00000090: f68e 7eb2 14ca 8833 903a 9832 1318 272f
000000a0: 4b33 8d34 2b6d 3b34 1452 1735 c760 bf34
000000b0: 9958 8531 0000 0000 0000 0000 0000 0000
000000c0: 0000 0000 0000 0000 b762 2833 cbce 7f32
000000d0: 00f3 3934 6aa4 2334 e7f5 6e31 9a2c 1eb4
000000e0: cbc9 0231 2e19 0eb3 fc6c a633 ea03 6530
000000f0: cf39 0935 8b01 c534 5758 b932 ca62 1035
00000100: 7fe7 c330 d279 1534 17a6 ef32 cef1 8d34
00000110: 9670 2b34 fb75 4f31 0000 0000 0000 0000
00000120: 0000 0000 0000 0000 0000 0000 005a 3034
00000130: 03e2 ec33 bfcd 8c34 32d3 ca34 d3cd 9831
00000140: b0b5 3bb4 f54c c132 2842 c4b2 2cc3 1934
00000150: ebc5 d830 db35 b3b1 84e4 bbb2 521e a534
00000160: 69e8 4d34 2f41 d930 1094 4a35 9ac8 1235
00000170: b44b 6335 5d5e b334 8899 1832 0000 0000
00000180: 0000 0000 0000 0000 0000 0000 0000 0000
00000190: 4aad b530 289c 4c30 b04e 8930 8853 a430
000001a0: 0000 0000 f82a d62f f615 9b2f 9805 232e
000001b0: ddc5 ed2f 0000 0000 a39b 1030 6321 d02f
000001c0: 29bf e22f b3c7 ef2f 0000 0000 9c30 4030
000001d0: 78bf 1830 e853 1c30 0bd2 a230 0000 0000
000001e0: 0000 0000 0000 0000 0000 0000 0000 0000
000001f0: 0000 0000 355d 5b37 9ac6 f335 fe28 1736
00000200: 4530 a333 27a6 d433 bc45 9634 512d 1b39
00000210: d634 5338 9c46 a438 0000 0000 d6bf 7d38
00000220: ae67 c338 4934 2639 0eea 1639 5dbc 2e39
00000230: 0000 803f f697 853f 0e4f 6fbe 3bdf 7fbf
00000240: 0000 80bf 79ba 93b7 247b 79b7 29ab aab7
00000250: 7fa2 d0b7 d748 b8b3 8bf8 10b7 b9e6 d4b6
00000260: 7c7d 95b5 0bd5 23b7 435a 9ab2 11e7 7db7
00000270: f74e 1ab7 fb52 66b7 f945 5fb7 8da3 cbb2
00000280: e473 62b7 1af3 02b7 075d 73b7 393f 83b7
00000290: 1144 81b3 0000 0000 0000 0000 0000 0000
000002a0: 0000 0000 0000 0000 4b79 23b7 bee9 14b7
000002b0: 0d8f 83b7 8c45 5cb7 2e98 4ab3 13e1 7cb7
000002c0: 5522 b8b6 a064 39b6 7955 87b7 a4fa b7b2
000002d0: e974 94b5 a165 89b5 51da 0eb6 cb15 cdb5
000002e0: 38a6 13b1 0d34 0fb7 0ea8 20b7 ff4c 88b7
000002f0: 93bc 56b7 9932 5eb3 0000 0000 0000 0000
00000300: 0000 0000 0000 0000 0000 0000 f92d 12b7
00000310: 0c4a 95b6 40dd 21b7 83c4 00b7 c218 48b3
00000320: 6892 afb6 961a bfb6 3821 5bb5 70da 02b7
00000330: 0c73 4fb2 ca01 78b7 3b48 36b7 84dd deb6
00000340: 86ea 53b7 883a adb2 ec74 d2b6 6abe 99b6
00000350: adb5 23b7 31c6 05b7 9aff 2db3 0000 0000
00000360: 0000 0000 0000 0000 0000 0000 0000 0000
00000370: 9c6e 27b7 fe83 c7b6 a477 0eb7 673a 56b7
00000380: e615 7fb3 8782 f0b6 8373 fdb6 4561 6ab5
00000390: 4606 41b7 f998 c3b2 2f4d 0eb7 4368 dab6
000003a0: e51d 45b7 7dac 33b7 4584 c1b2 63e3 95b7
000003b0: a8b7 84b7 4152 9ab7 5492 97b7 7632 00b4
000003c0: 0000 0000 0000 0000 0000 0000 0000 0000
000003d0: 0000 0000 e3b2 aeb2 c48c 41b2 f2b4 81b2
000003e0: 9ff5 96b2 0000 0000 276d eab1 d49c acb1
000003f0: e5c9 40b0 462a fcb1 0000 0000 8e12 0eb2

linear.bias f4 [72]
0.009213089 -0.010966395 -0.037820023 -0.0398789 -0.014341713 0.049228944 0.049706016 -0.07592069
-0.02627 0.03156336 -0.05582227 0.064951256 0.042821515 -0.021558873 -0.06979029 0.019572351
0.06909497 0.06445273 0.08118553 0.0060801622 0.0764808 -0.046520054 -0.028098078 -0.009440427
-0.053031567 -0.018899009 -0.06631807 0.07025574 0.026700359 -0.028260393 -0.006904793 -0.047808167
-0.082873546 -0.035217095 0.04378665 0.00017886922 0.0039834687 0.04758395 -0.0151941655 -0.037908375
0.013307376 -0.012394719 -0.018770244 0.016598705 -0.0027119163 -0.0045226305 0.029165257 -0.017289018
0.040698644 -0.020486433 0.014668364 0.07318155 -0.030194433 -0.047155354 0.018540429 -0.01991129
-0.05921592 0.044256024 0.05939458 0.031939782 -0.0015496091 0.013033802 -0.077108175 -0.026687881
0.008207877 0.03425583 0.061069556 0.038264517 0.058819417 -0.08115971 0.037578814 0.015987867
00000000: 7ff2 163c 65ac 33bc 2be9 1abd 0f58 23bd
00000010: 81f9 6abc 4aa4 493d 8998 4b3d 4f7c 9bbd
00000020: 2f34 d7bc 9548 013d e5a5 64bd 2a05 853d
00000030: 9d65 2f3d 3c9c b0bc 36ee 8ebd 3256 a03c
00000040: aa81 8d3d cbff 833d 9944 a63d 193c c73b
00000050: f7a1 9c3d d08b 3ebd f12d e6bc 05ac 1abc
00000060: a137 59bd 18d2 9abc c5d1 87bd 3ee2 8f3d
00000070: b6ba da3c 5782 e7bc 9a41 e2bb 7fd2 43bd
00000080: 9bb9 a9bd cd3f 10bd a159 333d d78e 3b39
00000090: c287 823b 63e7 423d f3f0 78bc d045 1bbd
000000a0: 2e07 5a3c 3813 4bbc 0ec4 99bc 02fa 873c
000000b0: 68ba 31bb 9332 94bb faeb ee3c b3a1 8dbc
000000c0: 9fb3 263d 2ad3 a7bc 9453 703c 35e0 953d
000000d0: 515a f7bc f925 41bd 19e2 973c 001d a3bc
000000e0: 648c 72bd ce45 353d bb47 733d 4ad3 023d
000000f0: 411c cbba ba8b 553c e4ea 9dbd 8ba0 dabc
00000100: 557a 063c d74f 0c3d 1224 7a3d 41bb 1c3d
00000110: a1ec 703d 1037 a6bd 3eec 193d fdf8 823c

linear2.weight f4 [36, 72]
-0.05385803 -0.1149783 0.11317389 -0.03663788 -0.10198575 -0.08203263 0.03251247 0.07541595
0.015930353 0.022141535 -0.01226325 0.023546651 -0.004732676 0.09721344 0.04742625 -0.047268916
0.04526856 -0.037974466 -0.07225172 -0.044482455 0.105503954 0.06548868 -0.10526711 0.1070454
-0.08641658 0.08227356 0.018895492 -0.030055922 0.0039205705 -0.065139875 0.10919767 -0.04227936
-0.03292962 -0.091487974 0.07951253 0.09765595 0.022768473 -0.016096022 0.04114254 -0.04920771
0.119376965 -0.033003427 0.04550715 0.09994082 -0.027907524 0.095151246 0.06947837 0.003935686
-0.03947392 0.09165047 0.04385779 0.012806164 -0.034327373 -0.10760191 -0.098326206 0.0044636102
-0.10501554 -0.1112964 -0.026515968 -0.0057189637 0.09128072 -0.074019015 -0.11126942 0.0051567373
-0.106256984 -0.0051176054 0.08798302 -0.09470646 0.030950207 -0.02781755 0.12069285 0.007812786
-0.01563233 -0.029429117 -0.06023843 0.08239267 -0.06310977 0.105278686 0.07660789 -0.10204661
0.08985168 -0.0064338543 0.07030237 -0.05835884 0.01737721 -0.0020107352 0.002392592 -0.024660828
-0.015651882 -0.06307944 0.08763011 0.051397726 -0.05877283 -0.019682348 -0.10319352 -0.03717487
0.015137203 0.111221075 -0.11827736 -0.029607011 -0.084358454 0.079146475 -0.11190665 0.024557319
0.023900982 0.062121518 0.021467093 0.012332314 0.11212776 -0.022124136 0.086074255 0.06037817
-0.03136387 -0.031318013 0.05641422 -0.052738346 0.013822242 -0.09292283 0.07640616 -0.09410239
0.02615937 -0.105610535 0.023175577 -0.022164328 -0.061548892 -0.023204638 0.018829651 -0.016097125
0.08588385 -0.10107202 0.07794883 -0.09245715 -0.052322462 -0.009746019 -0.072337784 0.051900852
0.11047669 -0.04146493 -0.025326477 0.016491134 0.091731474 0.1151234 0.031918414 0.02624109
0.116001844 -0.058987558 0.07412835 -0.06424313 0.037550226 -0.112808086 -0.009724672 0.11027214
0.11327095 -0.019015094 -0.053051375 -0.0045274957 0.080548175 0.033744123 -0.036465976 -0.047327504
0.08069636 -0.07417261 -0.04311759 -0.012052578 0.11387021 0.09392365 0.09272624 -0.07621969
0.044612974 0.00026216463 0.06250134 0.08152804 -0.08870977 -0.091878735 0.018217046 -0.11292187
0.0884546 -0.081975505 -0.06500202 0.0069690705 0.07070943 0.10638148 0.02643152 0.10398971
0.05369138 0.119100414 -0.024493793 -0.02514781 -0.032583926 -0.0133503545 -0.09620221 0.039220758
0.08818248 0.06429172 -0.07080916 0.11043085 0.0068160207 0.0039167996 -0.09869518 -0.047631335
0.042058267 0.018767111 -0.07184997 0.11279194 0.053328548 0.06862576 -0.06510709 -0.04373159
0.04078511 -0.106981985 0.059441496 0.011165157 0.07887727 0.09394241 0.028279996 0.06495791
0.007955125 0.118156336 -0.008329075 -0.0694442 -0.010695085 -0.08554097 -0.06573556 0.030244995
0.094329976 0.09931041 0.091970116 0.10404786 0.108531885 -0.06764024 -0.03232137 0.057366207
-0.042402606 -0.015077136 0.10292439 -0.0036829906 -0.022600932 0.05200302 0.118546784 -0.047000248
-0.010423608 -0.101617314 0.018329602 0.016579228 0.08241076 -0.09314397 -0.06973908 0.094886445
-0.049464915 0.012161019 0.10462668 0.10557932 0.0011025587 -0.10815126 -0.09344769 -0.10993694
00000000: 3d9a 5cbd be79 ebbd b6c7 e73d 9a11 16bd
00000010: e8dd d0bd b900 a8bd cc2b 053d ad73 9a3d
00000020: 5f80 823c 2a62 b53c cceb 48bc e8e4 c03c
00000030: 9014 9bbb d717 c73d 0742 423d 0d9d 41bd
00000040: 876b 393d 1d8b 1bbd b6f8 93bd 3c33 36bd
00000050: 7512 d83d ee1e 863d 4896 d7bd 9e3a db3d
00000060: 2dfb b0bd 0a7f a83d b8ca 9a3c d637 f6bc
00000070: 2178 803b 0e68 85bd 07a3 df3d 1f2d 2dbd
00000080: 36e1 06bd 0c5e bbbd 77d7 a23d d8ff c73d
00000090: f384 ba3c cedb 83bc 1485 283d 068e 49bd
000000a0: e97b f43d 9a2e 07bd b565 3a3d c6ad cc3d
000000b0: 529e e4bc a8de c23d ad4a 8e3d edf6 803b
000000c0: 68af 21bd 3eb3 bb3d 3aa4 333d f2d0 513c
000000d0: dc9a 0cbd 645e dcbd 405f c9bd 7a43 923b
000000e0: 6312 d7bd 5eef e3bd 0438 d9bc 2566 bbbb
000000f0: 63f1 ba3d 4897 97bd 39e1 e3bd d9f9 a83b
00000100: 439d d9bd 96b1 a7bb 7130 b43d 76f5 c1bd
00000110: 4a8b fd3c a1e1 e3bc d02d f73d 3301 003c
00000120: 5f0f 80bc 5515 f1bc 92bc 76bd 7dbd a83d
00000130: b23f 81bd 5a9c d73d 99e4 9c3d d0fd d0bd
00000140: 2804 b83d 15d3 d2bb b0fa 8f3d ae09 6fbd
00000150: a75a 8e3c 8ac6 03bb 08cd 1c3b 8105 cabc
00000160: 6038 80bc cb2f 81bd 6a77 b33d 6c86 523d
00000170: c7bb 70bd e03c a1bc 2057 d3bd ad44 18bd
00000180: 0802 783c e0c7 e33d 673b f2bd 678a f2bc
00000190: 20c4 acbd 8c17 a23d 502f e5bd 6e2c c93c
000001a0: fecb c33c 2273 7e3d c2db af3c 790d 4a3c
000001b0: 3da3 e53d ad3d b5bc b347 b03d 1a4f 773d
000001c0: 6777 00bd 5147 00bd 9912 673d 2a04 58bd
000001d0: af76 623c 534e bebd d57a 9c3d c1b8 c0bd
000001e0: 2d4c d63c 564a d8bd b5da bd3c f791 b5bc
000001f0: b11a 7cbd a717 bebc a440 9a3c 1ede 83bc
00000200: dfe3 af3d d9fe cebd a3a3 9f3d 2d5a bdbd
00000210: 1450 56bd c4ad 1fbc d525 94bd fd95 543d
00000220: 9a41 e23d 21d7 29bd 7979 cfbc 6a18 873c
00000230: b6dd bb3d d1c5 eb3d e2bc 023d 8ef7 d63c
00000240: 6092 ed3d f09c 71bd 9bd0 973d e791 83bd
00000250: 44ce 193d ed07 e7bd 3b54 1fbc 5cd6 e13d
00000260: 9afa e73d 8bc5 9bbc 664c 59bd 635b 94bb
00000270: 71f6 a43d 4737 0a3d 595d 15bd 7cda 41bd
00000280: 2244 a53d cfe7 97bd 129c 30bd 2d78 45bc
00000290: c934 e93d 0b5b c03d 41e7 bd3d 1219 9cbd
000002a0: 18bc 363d 2473 8939 b400 803d 2cf8 a63d
000002b0: 78ad b5bd eb2a bcbd ea3b 953c 9543 e7bd
000002c0: af27 b53d c6e2 a7bd c71f 85bd cd5c e43b
000002d0: 1bd0 903d 89de d93d ea86 d83c 8ff8 d43d
000002e0: 7eeb 5b3d ebea f33d 35a7 c8bc c802 cebc
000002f0: b976 05bd 72bb 5abc aa05 c5bd f2a5 203d
00000300: 0499 b43d 61ab 833d 6504 91bd 9229 e23d
00000310: ed58 df3b 7f58 803b b320 cabd 1319 43bd
00000320: 4a45 2c3d 7cbd 993c 1426 93bd 76ff e63d
00000330: 096f 5a3d aa8b 8c3d de56 85bd e51f 33bd
00000340: 4a0e 273d 5f19 dbbd ed78 733d 10ee 363c
00000350: 688a a13d e164 c03d 73ab e73c a708 853d
00000360: 3656 023c f3fb f13d ac76 08bc c338 8ebd
00000370: 703a 2fbc 1b30 afbd 5ea0 86bd 5ac4 f73c
00000380: 1330 c13d 4263 cb3d d45a bc3d 0b17 d53d
00000390: f745 de3d f786 8abd 6a63 04bd d4f8 6a3d
000003a0: 5bae 2dbd 1806 77bc 06ca d23d 545e 71bb
000003b0: 9725 b9bc 1e01 553d a8c8 f23d 5583 40bd
000003c0: c8c7 2abc bd1c d0bd f627 963c 29d1 873c
000003d0: f9c6 a83d 44c2 bebd 5dd3 8ebd d353 c23d
000003e0: b99b 4abd 033f 473c 8346 d63d f839 d83d
000003f0: bb83 903a 687e ddbd 8161 bfbd 9e26 e1bd

linear2.bias f4 [36]
0.09076275 -0.117057875 0.07355676 -0.057535663 0.059346676 0.007238241 -0.094464 0.077241585
0.10057524 -0.016465496 -0.049779832 0.10696253 0.09495143 -0.03209446 -0.071678355 -0.0053528873
0.09121832 -0.081497565 -0.07983731 0.07051722 -0.102761485 0.068269104 -0.071871124 0.01833116
-0.037587523 0.021320263 -0.047181945 0.037555177 0.075243466 -0.0722805 0.09865194 0.0050816555
-0.038949452 0.0523391 -0.053969067 -0.004061731
00000000: d2e1 b93d 0abc efbd eda4 963d 84aa 6bbd
00000010: 8015 733d c42e ed3b 5776 c1bd d630 9e3d
00000020: 64fa cd3d a6e2 86bc f0e5 4bbd 2c0f db3d
00000030: e575 c23d 7b75 03bd 1acc 92bd 4667 afbb
00000040: acd0 ba3d 32e8 a6bd be81 a3bd 556b 903d
00000050: 9d74 d2bd acd0 8b3d 2b31 93bd 3b2b 963c
00000060: 60f5 19bd d5a7 ae3c db41 41bd 75d3 193d
00000070: 3f19 9a3d cc07 94bd 070a ca3d 0484 a63b
00000080: 7689 1fbd 8661 563d ab0e 5dbd 4518 85bb

linear3.weight f4 [1, 36]
0.13584533 -0.11544012 0.17448212 0.1578634 0.03536959 0.07412264 -0.12969531 0.1499929
-0.044982858 -0.023908965 0.057320487 -0.11149297 -0.07209168 -0.13569704 -0.028686639 -0.066632986
0.05075925 -0.13741972 -0.08300224 -0.15714067 -0.018648462 0.13422358 0.066430844 0.13132626
0.06135683 0.16121367 -0.075401135 -0.03236899 -0.11385118 0.17157578 -0.16072766 -0.018772783
-0.04950499 0.09643147 0.06787344 0.08658034
00000000: 0a1b 0b3e df6b ecbd 71ab 323e f1a6 213e
00000010: b4df 103d 9ccd 973d d9ce 04be bd97 193e
00000020: f23f 38bd bcdc c3bc e3c8 6a3d 6d56 e4bd
00000030: cda4 93bd 2af4 0abe 3e00 ebbc e076 88bd
00000040: eee8 4f3d c1b7 0cbe 14fd a9bd 7ce9 20be
00000050: a9c4 98bc e871 093e e50c 883d 647a 063e
00000060: 4d51 7b3d 3215 253e e96b 9abd 5995 04bd
00000070: cf2a e9bd 90b1 2f3e cb95 24be 61c9 99bc
00000080: bfc5 4abd dd7d c53d 3b01 8b3d 0951 b13d
